save_model/best_model.pth (torch, 250027 bytes, 10 tensors)

c1.weight f4 [6, 1, 5, 5]
-0.04193965 -0.10348506 -0.17357022 0.0008365265 0.0368195 -0.2116224 -0.23808806 -0.20224959
-0.36987978 -0.29419503 -0.486216 -0.5955363 -0.33926478 -0.13469882 -0.0034867406 -0.38515338
-0.23387015 -0.3319346 0.014379048 0.016509991 0.1704903 0.103995405 -0.0012757706 0.45796427
0.33780903 0.37560686 0.04694823 0.047754407 -0.24717355 0.020114895 -0.39975467 -0.40735
-0.5920486 -0.7767726 -0.542466 -0.5571955 -0.6645604 -0.67000014 -0.8731817 -0.7037836
-0.16078573 -0.40155172 -0.3393644 -0.45850053 0.013927598 0.2282974 0.24223235 0.14472236
0.21818972 0.61922085 -0.64682597 -0.15041395 -0.13124754 0.31653437 0.43252668 -0.35396785
0.06252368 0.5939589 0.47680625 0.6039455 -0.011597567 0.29455045 0.4232894 0.75729865
0.84987277 -0.41376472 0.17215015 0.51497966 0.4980995 0.4961234 -0.57493925 -0.2473473
0.04800606 0.15263788 -0.26665306 -0.17969337 0.022200305 0.17685775 0.1967399 0.57295924
0.5285588 0.6428811 0.48286602 0.80413276 0.8809242 0.5712102 0.719979 0.84615356
0.75772226 0.6178308 0.52363545 0.82537246 0.56875503 0.6005376 0.05690305 0.2750865
0.4787027 0.1777202 0.13436504 -0.45873573 0.8743715 0.8324108 0.58952785 0.5188974
0.44314742 0.516284 0.058198646 0.043437663 0.027423382 -0.10029971 -0.10929538 -0.37178695
-0.64687914 -0.6646127 -0.47092643 -0.03902363 -0.6908207 -0.84340805 -0.61741513 -0.5991653
0.0070693577 -0.40242985 -0.41314238 -0.37462357 -0.34234485 0.20774415 0.2953544 -0.18197736
-0.18040554 -0.19161606 -0.101717144 -0.49292558 -0.54668695 -0.79092 -0.8346727 -0.35012785
-0.6634356 -0.90909314 -0.9255832 -0.7571825 0.18023413 -0.19171453 -0.5746719 -0.34998155
-0.1874582 0.37455332 0.23240167 0.21707106 0.48117837 0.9306996
00000000: e9c8 2bbd faef d3bd 64bc 31be 584a 5b3a
00000010: 0bd0 163d 8bb3 58be 5bcd 73be 841a 4fbe
00000020: e260 bdbe bba0 96be 4ef1 f8be 1175 18bf
00000030: 1db4 adbe 7dee 09be cd81 64bb d332 c5be
00000040: a87b 6fbe 55f3 a9be 1996 6b3c f63f 873c
00000050: 0295 2e3e 8bfb d43d c237 a7ba 4b7a ea3e
00000060: 4ef5 ac3e 8b4f c03e ca4c 403d 209a 433d
00000070: 101b 7dbe fec7 a43c a5ac ccbe 2e90 d0be
00000080: 7f90 17bf 92da 46bf 0ddf 0abf 5da4 0ebf
00000090: a120 2abf 2185 2bbf d688 5fbf 292b 34bf
000000a0: 04a5 24be 3098 cdbe 2cc1 adbe 95c0 eabe
000000b0: 9430 643c cbc6 693e c20b 783e 1932 143e
000000c0: 206d 5f3e 4285 1e3f 6396 25bf 1d06 1abe
000000d0: c165 06be cb10 a23e 2374 dd3e 463b b5be
000000e0: 6a0c 803d b10d 183f f31f f43e 2c9c 1a3f
000000f0: b903 3ebc 51cf 963e 63b9 d83e 53de 413f
00000100: 4391 593f f8d8 d3be 2148 303e b5d5 033f
00000110: e606 ff3e e303 fe3e 382f 13bf 9c48 7dbe
00000120: 01a2 443d 1b4d 1c3e c086 88be 8a01 38be
00000130: 6add b53c 331a 353e 2f76 493e 75ad 123f
00000140: a14f 073f db93 243f 373a f73e a5db 4d3f
00000150: 4084 613f d53a 123f 8b50 383f 859d 583f
00000160: 16fa 413f 292a 1e3f f90c 063f 9c4b 533f
00000170: ee99 113f d5bc 193f 2c13 693d 23d8 8c3e
00000180: 8518 f53e 49fc 353e fd96 093e 69df eabe
00000190: d0d6 5f3f e018 553f 4ceb 163f 76d6 043f
000001a0: 38e4 e23e 302b 043f b461 6e3d b1eb 313d
000001b0: 00a7 e03c ef69 cdbd 42d6 dfbd dc5a bebe
000001c0: df99 25bf 0f24 2abf 451d f1be 3ed7 1fbd
000001d0: a0d9 30bf 97e9 57bf eb0e 1ebf e662 19bf
000001e0: 12a6 e73b 490b cebe 6687 d3be a9ce bfbe
000001f0: d347 afbe e2ba 543e b138 973e 4658 3abe
00000200: 3bbc 38be 0037 44be 1451 d0bd be60 fcbe
00000210: adf3 0bbf bc79 4abf 1cad 55bf f543 b3be
00000220: ead6 29bf 54ba 68bf 05f3 6cbf b6d6 41bf
00000230: 4c8f 383e d050 44be b31d 13bf c830 b3be
00000240: 0bf5 3fbe 74c5 bf3e b4fa 6d3e e047 5e3e
00000250: 035d f63e 5442 6e3f

c1.bias f4 [6]
0.69991064 1.3135006 -0.69029933 -1.1428834 0.77627206 1.436872
00000000: 582d 333f ca20 a83f 75b7 30bf 014a 92bf
00000010: c4b9 463f 6ceb b73f

c3.weight f4 [16, 6, 5, 5]
0.17930551 0.14419597 0.021644345 -0.043794144 -0.0012105927 -0.03069405 -0.12671453 -0.2705037
-0.3270668 -0.20928147 -0.272001 -0.31762037 -0.27691117 -0.20567957 -0.14128822 0.104081646
0.10641967 0.18924013 0.11243985 0.087079205 0.08313746 0.15720253 0.024799554 0.09464765
0.098358296 0.1689686 0.1253896 -0.0029836318 0.079324774 0.028907537 -0.041521225 -0.23602484
-0.30641532 -0.26769537 -0.33431762 -0.37576157 -0.31357524 -0.25659555 -0.27418894 -0.19410715
0.1721835 0.39344054 0.5346554 0.34029874 0.2258938 0.22687745 0.12753965 0.27983737
0.19619069 0.08496241 -0.16293064 -0.11545335 -0.11140472 -0.10913448 -0.04780316 0.21734636
0.30591428 0.26809752 0.17811152 0.031986184 0.33377153 0.21629114 0.20266885 0.12064495
0.0801436 -0.10047113 -0.3779837 -0.37182993 -0.19988458 -0.03861065 -0.10536074 -0.16399054
-0.120777436 -0.14658114 -0.13447951 -0.21712102 -0.12878987 -0.0430026 -0.17947404 -0.044309147
0.065144755 0.1681575 0.33506826 0.3339185 0.34328502 0.08377 0.10413671 0.12415273
0.14135437 0.09490655 -0.24880067 -0.29777226 -0.46735582 -0.40184447 -0.33477393 -0.10261236
-0.14015278 -0.3091703 -0.27131194 -0.16831006 0.0058293194 -0.27074575 -0.2443259 -0.25504577
-0.1559769 -0.43670747 -0.5739402 -0.48193902 -0.33590406 -0.34757742 -0.13779563 0.11699787
0.2596596 0.16187754 0.1438558 0.26709676 0.50641763 0.45298243 0.43514284 0.2809623
-0.21863437 -0.29293784 -0.29322255 -0.1666013 -0.16599776 0.2828627 0.106237136 -0.012623227
-0.035467964 0.06892098 -0.03531609 -0.3541503 -0.43677443 -0.3324245 -0.33517817 -0.4289396
-0.3913273 -0.2591209 -0.26060775 -0.2804881 0.12858316 0.4718187 0.48849678 0.34028733
0.22599879 0.27419743 0.2877311 0.33431017 0.2809096 0.11137173 -0.076622136 -0.060761105
-0.06935292 -0.00673407 -0.093545794 -0.022185942 0.017524878 0.12981944 0.024561511 -0.07481468
-0.008224615 0.066976614 0.13005477 -0.13895205 -0.22959378 -0.04750623 0.024161534 -0.06276411
-0.29129982 -0.12574796 -0.10003574 -0.014249959 -0.18149948 -0.16826333 0.05349429 -0.073847845
0.010375173 -0.043253243 -0.16452716 -0.25283614 0.022341548 0.20229417 0.24237521 -0.0703942
-0.3531362 0.026818916 0.31724095 0.077787586 -0.3574804 -0.25106603 0.074920945 0.19847862
-0.12855683 -0.44156164 -0.081155956 0.05673633 -0.1197352 -0.31236094 -0.27689958 0.069329135
0.054613005 -0.039303932 -0.048689302 0.15577807 -0.0010009902 -0.044882197 -0.2673715 -0.13774286
0.113379076 -0.043115497 -0.06269489 -0.2950253 0.050120287 0.17453562 -0.06045386 -0.2341857
-0.06434143 0.22662933 0.18098241 -0.27056888 0.023960387 0.12212498 0.23592468 -0.14447388
-0.31343254 0.1584865 -0.059370384 0.009596364 0.024733694 0.16897711 0.09164047 -0.20488733
-0.22004016 -0.016032863 0.28267738 -0.042248562 -0.21290815 -0.14492641 0.21856582 0.24766196
-0.12330559 -0.18672273 0.11700094 0.2658242 0.06734313 -0.08700553 0.049331035 0.2620025
0.25720748 -0.01975303 -0.051858515 0.113881655 0.12984519 -0.12221785 -0.17302613 0.043730095
00000000: dd9b 373e 1ca8 133e 7b4f b13c 7d61 33bd
00000010: c0ac 9eba 1772 fbbc 74c1 01be 767f 8abe
00000020: 4d75 a7be e24d 56be b743 8bbe 239f a2be
00000030: 4dc7 8dbe aa9d 52be dcad 10be c228 d53d
00000040: 8ef2 d93d 2ac8 413e dd46 e63d 9556 b23d
00000050: f943 aa3d b3f9 203e 6f28 cb3c a1d6 c13d
00000060: 1370 c93d 1b06 2d3e 2266 003e 0989 43bb
00000070: 0775 a23d 80cf ec3c 2912 2abd 7fb0 71be
00000080: 78e2 9cbe 5e0f 89be ae2b abbe d263 c0be
00000090: ef8c a0be 7e60 83be 7e62 8cbe 06c4 46be
000000a0: df50 303e 0a71 c93e 2ddf 083f a33b ae3e
000000b0: b450 673e 9052 683e c199 023e d846 8f3e
000000c0: 36e6 483e c600 ae3d 4ad7 26be ce72 ecbd
000000d0: 2828 e4bd e681 dfbd 3fcd 43bd 0b90 5e3e
000000e0: cca0 9c3e 1444 893e de62 363e f203 033d
000000f0: 1ae4 aa3e 6d7b 5d3e 6c88 4f3e b314 f73d
00000100: 5422 a43d cfc3 cdbd 1487 c1be 7e60 bebe
00000110: 8bae 4cbe 3326 1ebd 5fc7 d7bd 23ed 27be
00000120: 295a f7bd 5e19 16be ffb4 09be f954 5ebe
00000130: 7ee1 03be 7f23 30bd 0bc8 37be 827d 35bd
00000140: 9d6a 853d 7b31 2c3e 118e ab3e 5ef7 aa3e
00000150: 0ec3 af3e 9b8f ab3d a145 d53d c943 fe3d
00000160: 33bf 103e 5e5e c23d 9ac5 7ebe 9b75 98be
00000170: 4349 efbe 8fbe cdbe 7d67 abbe 6e26 d2bd
00000180: 3684 0fbe 924b 9ebe 66e9 8abe 7959 2cbe
00000190: e003 bf3b 309f 8abe 9230 7abe 5c95 82be
000001a0: 69b8 1fbe 1f98 dfbe bfed 12bf b6c0 f6be
000001b0: 9efb abbe abf5 b1be 4c1a 0dbe 949c ef3d
000001c0: 1af2 843e 3ac3 253e ef4e 133e e8c0 883e
000001d0: 96a4 013f 50ed e73e 0bcb de3e 4ada 8f3e
000001e0: b0e1 5fbe f3fb 95be 4421 96be 8899 2abe
000001f0: 51fb 29be 61d3 903e db92 d93d a7d1 4ebc
00000200: db46 11bd 7126 8d3d 9ba7 10bd 3053 b5be
00000210: e6a0 dfbe 8b33 aabe 799c abbe f99d dbbe
00000220: 0d5c c8be 7fab 84be 616e 85be 239c 8fbe
00000230: 4eab 033e 3892 f13e 401c fa3e 243a ae3e
00000240: 3a6c 673e 9b63 8c3e 7e51 933e b42a ab3e
00000250: 62d3 8f3e dd16 e43d 11ec 9cbd a3e0 78bd
00000260: e708 8ebd 79a9 dcbb f094 bfbd 4bbf b5bc
00000270: 5590 8f3c 63ef 043e 3935 c93c 7038 99bd
00000280: 89c0 06bc 092b 893d 142d 053e 7249 0ebe
00000290: a21a 6bbe e595 42bd 69ee c53c 788a 80bd
000002a0: 4025 95be 13c4 00be 8adf ccbd a978 69bc
000002b0: 00db 39be 394d 2cbe d41c 5b3d 8a3d 97bd
000002c0: a1fc 293c 502a 31bd cf79 28be bd73 81be
000002d0: 9f05 b73c 3426 4f3e 3531 783e d62a 90bd
000002e0: 45ce b4be 58b3 db3c 686d a23e 194f 9f3d
000002f0: ac07 b7be ba8b 80be 2770 993d fb3d 4b3e
00000300: 67a4 03be 5e14 e2be 1835 a6bd 5b64 683d
00000310: bb37 f5bd c6ed 9fbe c8c5 8dbe 6ffc 8d3d
00000320: e3b1 5f3d 29fd 20bd 6f6e 47bd 4984 1f3e
00000330: a833 83ba 65d6 37bd ebe4 88be 770c 0dbe
00000340: 4a33 e83d e099 30bd 2e66 80bd 8e0d 97be
00000350: ee4a 4d3d 77b9 323e 779e 77bd 60ce 6fbe
00000360: 71c5 83bd 8511 683e 7453 393e 0188 8abe
00000370: 9348 c43c a91c fa3d 3d96 713e f6f0 13be
00000380: 3b7a a0be 494a 223e 5c2e 73bd 113a 1d3c
00000390: 519e ca3c 5608 2d3e 00ae bb3d fccd 51be
000003a0: 3552 61be 5a57 83bc 17bb 903e d40c 2dbd
000003b0: 9804 5abe 9767 14be b8cf 5f3e 199b 7d3e
000003c0: a487 fcbd 3e34 3fbe 309e ef3d 1c1a 883e
000003d0: 32eb 893d f52f b2bd 570f 4a3d 3125 863e
000003e0: b3b0 833e 1bd1 a1bc 9869 54bd c93a e93d
000003f0: 23f6 043e 5a4d fabd c32d 31be 541e 333d

c3.bias f4 [16]
-0.010487419 -0.07882615 -0.09044016 -0.16092753 -0.027181806 -0.04726791 -0.03403152 -0.022153346
-0.11204222 -0.001433551 -0.0034542715 -0.095566854 -0.17213015 -0.13074376 -0.08727004 -0.10054507
00000000: 6cd3 2bbc 9b6f a1bd b138 b9bd 30ca 24be
00000010: 61ac debc ff9b 41bd a364 0bbd ef7a b5bc
00000020: 6476 e5bd fde5 bbba 0f61 62bb 8eb8 c3bd
00000030: e342 30be b1e1 05be a2ba b2bd 93ea cdbd

c5.weight f4 [120, 400]
-0.051680606 -0.0036807212 0.04752639 0.04436147 0.010628277 0.00520555 0.050843637 0.11762037
0.1405841 0.0087727895 0.002842931 -0.0026319635 -0.052026965 -0.102424234 0.015912622 -0.03784775
-0.035957653 -0.11972499 0.02067092 0.03464551 0.023803666 0.041816633 -0.07150804 -0.016198786
-0.03270042 0.056112565 0.008649846 -0.041443337 -0.013973236 0.01180089 -0.004999566 -0.04752813
-0.04930818 -0.10296026 0.029123561 0.03914793 0.059683338 -0.011221375 -0.10243706 -0.014585999
0.018362304 0.040656675 -0.0091855535 -0.002370474 0.053149898 -0.049043432 -0.039789636 0.020552412
0.03375494 0.055081144 0.011757486 0.0025233713 0.05158834 -0.012544871 -0.020988552 0.024675665
0.038422696 0.03016607 0.01863061 -0.079229906 -0.04003653 -0.05022447 0.0025888614 -0.026342604
-0.0555046 0.07524513 -0.02975116 -0.0261165 -0.044533532 0.066019066 0.011640317 -0.027993044
0.03308955 0.04291482 0.009036845 0.03430618 0.01717145 0.06606653 -0.037283763 -0.015301862
0.057629734 0.06385337 0.046526425 -0.022022273 -0.054444306 0.035885252 -0.068476446 0.029504014
-0.06265508 -0.01952259 0.034965716 -0.038056444 0.06760406 -0.12068852 0.04053693 0.023234418
-0.011390938 -0.029033652 0.046643276 0.031043027 -0.0110493805 0.00047176596 -0.06755708 -0.062043365
0.024852835 0.008966793 -0.023752758 0.0057332986 -0.009167586 0.030881071 -0.0006141537 -0.002554351
-0.007220104 -0.02036432 -0.007030822 -0.025190335 -0.01690115 0.040257484 0.029290248 0.06842107
0.042433348 -0.040658854 -0.02695774 -0.07280818 -0.032144494 0.027972294 0.035659373 0.028238662
-0.027467791 -0.02622967 0.0064956243 0.014196415 -0.014340335 0.0514688 0.014390214 0.048383463
0.02583111 -0.032148354 0.004383486 -0.040376257 -0.0134869665 0.058003277 0.020174056 -0.014452596
-0.009178846 -0.0070975185 0.025083778 0.03507655 -0.068564765 -0.03930349 -0.038127184 0.016534977
0.02923016 -0.019692488 0.051125478 -0.03352783 -0.025001971 0.020174712 0.11288436 0.07555751
-0.009434968 -0.004252786 -0.08270674 -0.027447544 0.033878293 -0.03523307 -0.034869827 0.0014059076
0.042069536 -0.04880893 -0.034573685 -0.00718555 0.08014731 -0.03673061 -0.03810056 -0.026888762
-0.052944526 -0.044834033 -0.0352791 0.033853427 -0.028599588 -0.0023291723 -0.030006899 -0.009828537
-0.013553356 0.032153327 0.009057271 -0.04675354 -0.0031152922 0.04948933 -0.08619683 -0.008128464
0.014360935 -0.0005722818 0.04588731 -0.023066154 0.07004197 0.050262675 0.071768716 -0.010307467
0.0121077085 -0.039420437 0.046544693 0.05410556 0.033415876 0.046602435 0.047322754 0.023337813
0.036336623 -0.009857087 0.04981116 -0.018458033 0.0050821663 -0.06354274 -0.067868054 0.022566484
-0.051384054 0.03828885 -0.02579747 0.014225557 -0.025493616 0.01730808 0.0042735673 -0.03552866
-0.01349615 0.009111327 0.05373176 -0.009643833 0.029443098 -0.0342825 -0.012044536 -0.016530512
0.03313256 -0.02829815 -0.006402124 -0.0043463283 -0.026136212 -0.043089442 0.05386773 0.03765302
0.011776643 -0.022377046 0.08373808 -0.020106198 0.033354886 -0.022782296 -0.016803721 0.04842081
0.0017910448 -0.00029021266 0.015340165 0.050609343 0.03884678 -0.026352528 -0.022729885 -0.0215741
00000000: 0baf 53bd 4138 71bb 08ab 423d 5fb4 353d
00000010: 3a22 2e3c 5293 aa3b 6b41 503d f3e2 f03d
00000020: 47f5 0f3e bfbb 0f3c 7850 3a3b 057d 2cbb
00000030: 3a1a 55bd ccc3 d1bd 305b 823c 3e06 1bbd
00000040: 5548 13bd 6032 f5bd 1056 a93c 73e8 0d3d
00000050: e8ff c23c eb47 2b3d cf72 92bd 51b3 84bc
00000060: e0f0 05bd 4ad6 653d 15b8 0d3c 7dc0 29bd
00000070: 00f0 64bc 8558 413c 66d3 a3bb dbac 42bd
00000080: 60f7 49bd d4dc d2bd 8994 ee3c 9459 203d
00000090: 8476 743d dcd9 37bc 85ca d1bd 1dfa 6ebc
000000a0: 8b6c 963c 9d87 263d 017f 16bc f459 1bbb
000000b0: b5b3 593d c4e1 48bd 75fa 22bd 885d a83c
000000c0: 9f42 0a3d c49c 613d 78a2 403c 255f 253b
000000d0: 4c4e 533d 0189 4dbc 2ff0 abbc 9f24 ca3c
000000e0: 1e61 1d3d d61e f73c 399f 983c 4a43 a2bd
000000f0: 58fd 23bd 2db8 4dbd e3a9 293b 72cc d7bc
00000100: cb58 63bd 1e1a 9a3d b4b8 f3bc 45f2 d5bc
00000110: cb68 36bd 0135 873d 07b7 3e3c ab51 e5bc
00000120: e888 073d 73c7 2f3d 460f 143c a384 0c3d
00000130: 24ab 8c3c e44d 873d dcb6 18bd a9b4 7abc
00000140: 280d 6c3d 8ec5 823d 7e92 3e3d 0e68 b4bc
00000150: fe00 5fbd 6afc 123d 613d 8cbd 67b2 f13c
00000160: 4e51 80bd d7ed 9fbc 3638 0f3d 13e1 1bbd
00000170: ff73 8a3d 8b2b f7bd 0d0a 263d 1b56 be3c
00000180: 0fa1 3abc fbd7 edbc 050d 3f3d f24d fe3c
00000190: 7608 35bc 5b57 f739 5e5b 8abd 2f21 7ebd
000001a0: 2c98 cb3c 75e9 123c 2595 c2bc 65de bb3b
000001b0: a533 16bc 4dfa fc3c 28ff 20ba e666 27bb
000001c0: 9f96 ecbb 13d3 a6bc cf62 e6bb f65b cebc
000001d0: 4874 8abc 08e5 243d 1af2 ef3c 5920 8c3d
000001e0: 97ce 2d3d e689 26bd 7ad6 dcbc 741c 95bd
000001f0: f2a9 03bd 2726 e53c 900f 123d c454 e73c
00000200: 2204 e1bc 9bdf d6bc 3fd9 d43b 1598 683c
00000210: b9f3 6abc f3d0 523d efc4 6b3c bd2d 463d
00000220: c49b d33c fead 03bd 59a3 8f3b 9361 25bd
00000230: 70f8 5cbc d894 6d3d 1044 a53c 95ca 6cbc
00000240: df62 16bc 4d92 e8bb 7f7c cd3c 6eac 0f3d
00000250: af6b 8cbd b2fc 20bd 402b 1cbd 5c74 873c
00000260: 1774 ef3c 2452 a1bc f368 513d 7a54 09bd
00000270: efd0 ccbc 7045 a53c ea2f e73d e5bd 9a3d
00000280: 2095 1abc f45a 8bbb 2762 a9bd acd9 e0bc
00000290: f7c3 0a3d 8d50 10bd aad3 0ebd 6e46 b83a
000002a0: 1b51 2c3d dfeb 47bd 239d 0dbd c374 ebbb
000002b0: 4624 a43d d672 16bd 550f 1cbd d245 dcbc
000002c0: 5cdc 58bd e4a3 37bd d180 10bd e4a9 0a3d
000002d0: af49 eabc 07a5 18bb 07d1 f5bc df07 21bc
000002e0: e50e 5ebc 35b3 033d f364 143c a480 3fbd
000002f0: ee29 4cbb 53b5 4a3d f787 b0bd 402d 05bc
00000300: 214a 6b3c 2e05 16ba 55f4 3b3d 3bf5 bcbc
00000310: 2a72 8f3d 3ce0 4d3d 7afb 923d a6e0 28bc
00000320: 695f 463c 5377 21bd a6a5 3e3d cb9d 5d3d
00000330: 16df 083d 32e2 3e3d 81d5 413d f12e bf3c
00000340: b6d5 143d 9f7f 21bc c906 4c3d 4d35 97bc
00000350: 4d88 a63b b222 82bd 68fe 8abd 59dd b83c
00000360: 1678 52bd c5d4 1c3d 3755 d3bc 5012 693c
00000370: fdd7 d0bc adc9 8d3c 4809 8c3b 8086 11bd
00000380: f51e 5dbc ad47 153c d515 5c3d 2b01 1ebc
00000390: a732 f13c cf6b 0cbd 7256 45bc ff6a 87bc
000003a0: 02b6 073d 86d1 e7bc e9c8 d1bb a56b 8ebb
000003b0: 9c1b d6bc 8e7e 30bd 69a4 5c3d 0e3a 1a3d
000003c0: d2f2 403c 1150 b7bc df7e ab3d c1b5 a4bc
000003d0: 229f 083d f0a1 babc f5a7 89bc e654 463d
000003e0: 7ec1 ea3a af27 98b9 5155 7b3c be4b 4f3d
000003f0: cd1d 1f3d 42e1 d7bc 0634 babc 2bbc b0bc

c5.bias f4 [120]
0.05674816 -0.07762712 0.009520319 -0.05260606 0.09226156 -0.0036249142 -0.008999297 0.04256905
-0.03372848 -0.042316776 0.07179154 -0.06829944 0.013155842 -0.031864908 0.011559435 -0.00036851282
-0.03325571 0.03649518 0.02674122 0.006042833 -0.012178617 0.025546504 0.032428127 0.034048013
0.010038092 -0.008156387 0.004174822 0.027772283 0.07666763 -0.084786095 0.0010969238 -0.0027152125
0.023636486 0.059742846 0.008385624 0.06140994 -0.036834102 -0.0036272907 -0.028783442 -0.0069609643
-0.02985538 -0.091213815 0.041651305 -0.020813765 0.0470721 -0.047973707 -0.039539978 -0.041235883
-0.008521665 -0.0005417718 0.038752295 0.008471205 0.022246992 -0.07582702 0.06983752 0.010053087
-0.018264083 -0.034486074 0.0028383532 0.040881164 0.0073103122 0.0025095646 -0.04869898 -0.031690244
0.037013564 0.04354643 -0.0048344964 0.035316333 0.024266988 0.05069902 0.05959945 -0.03322666
-0.0058599906 0.03688644 -0.07327494 0.013767884 -0.0110648675 0.04221291 -0.09565144 0.023064109
-0.050353352 0.0588316 0.002078581 0.022709915 -0.052184813 -0.058343668 0.008921044 -0.03907262
0.020760039 -0.0022773293 0.024711886 -0.014355061 0.0119551215 0.002702576 -0.01393048 -0.031421836
-0.056227274 0.02607391 0.044910807 -0.005988823 0.06469019 -0.015607015 0.011908713 0.013917425
-0.059528913 -0.019469509 0.018817017 0.009214111 -0.03070906 -0.0026178856 -0.0021371285 -0.08557714
0.014314088 -0.025663644 0.027169768 0.024389029 -0.06754878 0.016154045 0.006342266 0.030442195
00000000: c270 683d f8fa 9ebd 1dfb 1b3c 7479 57bd
00000010: a1f3 bc3d f88f 6dbb ca71 13bc e25c 2e3d
00000020: e026 0abd 5b54 2dbd 7107 933d 94e0 8bbd
00000030: 9a8b 573c c784 02bd c963 3d3c f434 c1b9
00000040: 2437 08bd f87b 153d 6710 db3c f502 c63b
00000050: d288 47bc e746 d13c 5bd3 043d ee75 0b3d
00000060: cf76 243c 5ea2 05bc f2cc 883b b382 e33c
00000070: eb03 9d3d 55a4 adbd a8c6 8f3a b5f1 31bb
00000080: 4ea1 c13c eab4 743d db63 093c fd88 7b3d
00000090: 5bdf 16bd d7b7 6dbb 41cb ebbc cd18 e4bb
000000a0: 4593 f4bc 4fce babd 8f9a 2a3d a181 aabc
000000b0: adce 403d 1480 44bd acf4 21bd f5e6 28bd
000000c0: 749e 0bbc b105 0eba baba 1e3d cfca 0a3c
000000d0: 533f b63c 324b 9bbd f906 8f3d b4b5 243c
000000e0: 8f9e 95bc 4541 0dbd aa03 3a3b 0273 273d
000000f0: 588b ef3b 8277 243b 9578 47bd a1cd 01bd
00000100: 899b 173d be5d 323d b26a 9ebb dca7 103d
00000110: 90cb c63c c7a9 4f3d 8e1e 743d ae18 08bd
00000120: 2a05 c0bb 3c16 173d 2c11 96bd b192 613c
00000130: 6b49 35bc 72e7 2c3d e7e4 c3bd f1f0 bc3c
00000140: 513f 4ebd 67f9 703d cd38 083b 250a ba3c
00000150: bebf 55bd c5f9 6ebd 9229 123c 9d0a 20bd
00000160: f510 aa3c 3f3f 15bb 9570 ca3c 7d31 6bbc
00000170: 6adf 433c b41d 313b ab3c 64bc 2fb4 00bd
00000180: 924e 66bd f498 d53c 65f4 373d e33d c4bb
00000190: 4a7c 843d 91b4 7fbc c31c 433c e905 643c
000001a0: 97d4 73bd 857e 9fbc 2526 9a3c c8f6 163c
000001b0: 9191 fbbc d590 2bbb 110f 0cbb 1143 afbd
000001c0: a385 6a3c 903c d2bc 2293 de3c 80cb c73c
000001d0: 0457 8abd 7d55 843c c9d2 cf3b e961 f93c

f6.weight f4 [84, 120]
-0.005808737 0.06146951 0.0933993 -0.12755091 0.042747673 0.025834206 0.026428739 0.01959555
0.11221312 0.1468401 -0.027616818 -0.09234596 -0.07646451 0.09295396 -0.06776229 -0.030925684
-0.16412932 0.0031609295 -0.004921642 -0.018790977 -0.0702055 -0.08010909 0.15503085 0.10418856
-0.08131276 -0.043471564 -0.06393476 0.077655256 -0.025705181 0.027734928 -0.05044822 0.09945422
-0.010229875 0.051363807 0.13188206 -0.010211584 -0.0019930366 -0.09890493 -0.020580586 -0.05045796
0.051215313 0.028416788 0.08947148 0.026097614 0.104918905 -0.034347747 -0.03215794 0.052627727
-0.11882356 0.11700984 -0.08152234 -0.07091916 -0.069118 -0.14463916 0.050656226 0.03149944
-0.14138882 0.06625639 0.12895665 0.11313859 -0.06610703 0.1004874 -0.017163085 0.036900774
-0.02836468 0.051919486 -0.0040016696 -0.13498136 -0.03493898 0.1331105 -0.06324046 -0.11691906
0.072119996 0.10711682 0.084818326 -0.19308496 0.0061549093 0.029040853 0.002458624 0.07648351
-0.050807193 -0.09043307 -0.00091102975 0.079919994 0.015323136 -0.052674636 -0.03540869 -0.12121892
-0.058319803 -0.0790364 -0.091007985 0.09529775 0.096956395 0.018721525 -0.00070387154 0.11983676
-0.06388701 -0.17197217 0.022274112 -0.08498204 0.11568567 -0.117583945 0.07626389 -0.05553086
-0.051630735 0.010198907 0.01460224 0.03980801 -0.01333148 -0.017369963 0.025414888 -0.013427207
-0.12958708 -0.01622748 0.15517515 -0.13112941 0.06629689 -0.08393862 -0.0015107258 -0.104228355
-0.05058655 -0.01113652 -0.10865392 0.14346738 -0.12371894 0.14362514 0.13341327 -0.1802381
0.1262785 -0.056822717 -0.07621912 0.08780372 -0.124731325 0.100147516 0.13009636 0.08370713
0.013123322 0.09101228 0.20303108 0.021008797 -0.003161244 0.03763647 0.15262437 -0.13742922
0.09280525 0.07036122 0.18624283 0.0712808 -0.05743348 0.16286635 -0.0043207803 0.05565779
0.10774261 -0.12071386 -0.004753059 0.037693314 0.17611375 0.15032646 -0.04302105 0.1405559
-0.03820079 0.017746497 0.072898686 0.14218809 -0.08960991 0.013010122 0.10717071 0.09584566
-0.08716279 0.049833413 -0.07617982 -0.13078271 0.0038617337 0.122268274 0.09712796 -0.026652008
-0.16456461 0.13131446 -0.022985006 0.09495107 -0.036516663 -0.05047199 0.10450117 0.09237755
-0.22137102 0.06450345 -0.13747911 -0.11049561 -0.15977876 -0.064957134 0.07843771 0.08905898
0.17483541 0.15175803 0.008537819 -0.10544075 -0.03594876 0.0087151 0.009975087 -0.020711577
0.0022454837 -0.105146855 0.0933965 0.12179732 0.040994547 0.08390047 -0.057096917 -0.07865516
-0.024460003 -0.10408431 -0.053963665 -0.0955616 -0.065954074 0.07254279 0.08718042 0.018658822
0.053600535 -0.077649735 -0.061814997 -0.032894704 -0.08983874 -0.04934196 0.11450947 0.103256404
0.051931046 0.20554157 0.03853967 0.0027818105 0.060325444 0.07257227 -0.088112436 0.045936666
0.07520272 0.042971924 0.14260134 0.07063783 -0.055916958 0.048152924 0.03678183 0.060237646
0.03630251 0.06984224 -0.14452137 0.075378194 0.088541366 0.20185193 0.021573704 -0.02254663
-0.005951039 -0.18560085 -0.066218756 -0.03220632 -0.006905867 0.026243135 0.007465728 0.13571738
00000000: 3857 bebb 74c7 7b3d 2248 bf3d b59c 02be
00000010: 2f18 2f3d 42a2 d33c 1581 d83c d986 a03c
00000020: fecf e53d 405d 163e aa3c e2bc e11f bdbd
00000030: 6d99 9cbd a55e be3d f5c6 8abd dc57 fdbc
00000040: 8411 28be 9927 4f3b ba45 a1bb 89ef 99bc
00000050: e7c7 8fbd 3c10 a4bd 68c0 1e3e d060 d53d
00000060: 4e87 a6bd 3d0f 32bd 3af0 82bd b809 9f3d
00000070: ac93 d2bc 5c34 e33c cba2 4ebd a7ae cb3d
00000080: 359b 27bc db62 523d 170c 073e 7d4e 27bc
00000090: 9b9d 02bb ab8e cabd 9e98 a8bc 02ad 4ebd
000000a0: 26c7 513d 53ca e83c d33c b73d aaca d53c
000000b0: b9df d63d 39b0 0cbd 0bb8 03bd 2c90 573d
000000c0: c459 f3bd dba2 ef3d 2ff5 a6bd 113e 91bd
000000d0: bd8d 8dbd 4a1c 14be e77c 4f3d 8f05 013d
000000e0: 3bc8 10be 6eb1 873d 360d 043e 34b5 e73d
000000f0: 1f63 87bd 57cc cd3d 9999 8cbc 4425 173d
00000100: 0c5d e8bc 87a9 543d 7020 83bb 8e38 0abe
00000110: 2d1c 0fbd 1e4e 083e 3784 81bd 4373 efbd
00000120: a6b3 933d 1060 db3d 3bb5 ad3d 10b8 45be
00000130: 1faf c93b 15e7 ed3c de20 213b 63a3 9c3d
00000140: 341b 50bd f934 b9bd 2cd2 6eba 18ad a33d
00000150: e40d 7b3c 5cc1 57bd b408 11bd a041 f8bd
00000160: bfe0 6ebd d6dd a1bd 6562 babd 772b c33d
00000170: 1391 c63d e25d 993c 0584 38ba fa6c f53d
00000180: 31d7 82bd 7919 30be 3378 b63c 100b aebd
00000190: 9cec ec3d dacf f0bd 3e30 9c3d 5474 63bd
000001a0: c07a 53bd 5119 273c 3c3e 6f3c b90d 233d
000001b0: 486c 5abc 744b 8ebc e232 d03c cafd 5bbc
000001c0: 7ab2 04be 7eef 84bc 3ce6 1e3e ca46 06be
000001d0: aac6 873d 03e8 abbd 8c03 c6ba ad75 d5bd
000001e0: d833 4fbd f375 36bc f285 debd 1de9 123e
000001f0: 5b60 fdbd 7812 133e 7d9d 083e 5690 38be
00000200: 274f 013e f0be 68bd c518 9cbd 70d2 b33d
00000210: 2373 ffbd 241a cd3d fb37 053e a56e ab3d
00000220: 3403 573c a564 ba3d 61e7 4f3e a41a ac3c
00000230: e02c 4fbb b328 1a3d 9049 1c3e 3fba 0cbe
00000240: ae10 be3d 8b19 903d 71b6 3e3e abfb 913d
00000250: 5e3f 6bbd 70c6 263e 5595 8dbb 6cf9 633d
00000260: 28a8 dc3d d438 f7bd 8cbf 9bbb 4e64 1a3d
00000270: 2a57 343e 2eef 193e d736 30bd e3ed 0f3e
00000280: 6e78 1cbd 1a61 913c e84b 953d c199 113e
00000290: 6785 b7bd 6828 553c 517c db3d bb4a c43d
000002a0: 6882 b2bd 1f1e 4c3d 2a04 9cbd e7eb 05be
000002b0: 2415 7d3b ca67 fa3d 06eb c63d 5055 dabc
000002c0: a083 28be 4c77 063e 0d4b bcbc b575 c23d
000002d0: 7f92 15bd b8bb 4ebd b604 d63d 7130 bd3d
000002e0: 16af 62be 631a 843d 53c7 0cbe 864b e2bd
000002f0: 0b9d 23be 3f08 85bd f3a3 a03d 8e64 b63d
00000300: 0e08 333e 7566 1b3e 35e2 0b3c 52f1 d7bd
00000310: 023f 13bd c7c9 0e3c 8c6e 233c 53ab a9bc
00000320: f728 133b 3c57 d7bd aa46 bf3d e070 f93d
00000330: e6e9 273d 02d4 ab3d 75de 69bd f515 a1bd
00000340: 5860 c8bc 282a d5bd 0109 5dbd cdb5 c3bd
00000350: ee12 87bd 5091 943d a68b b23d 63da 983c
00000360: 3c8c 5b3d d306 9fbd b931 7dbd 99bc 06bd
00000370: 60fd b7bd cc1a 4abd f183 ea3d 1878 d33d
00000380: a6b5 543d 7d79 523e c6db 1d3d 094f 363b
00000390: d017 773d c5a0 943d 4b74 b4bd 1628 3c3d
000003a0: e203 9a3d 5403 303d 1606 123e 91aa 903d
000003b0: 2e09 65bd 003c 453d 8ba8 163d c0bb 763d
000003c0: f1b1 143d 7309 8f3d 69fd 13be e25f 9a3d
000003d0: 2d55 b53d 46b2 4e3e 56bb b03c b6b3 b8bc
000003e0: ef00 c3bb 260e 3ebe b39d 87bd c6ea 03bd
000003f0: 9c4a e2bb d8fb d63c 11a3 f43b 7ff9 0a3e

f6.bias f4 [84]
-0.05814725 0.035250485 0.08176173 0.05403967 0.06957266 -0.03194401 0.03765692 0.03354007
0.07534782 0.074614644 -0.07665527 0.094420694 -0.0036552176 -0.09473853 0.086436175 0.051508836
0.058092076 -0.097778864 0.033017185 0.06334328 0.011612009 -0.012402514 0.03216756 0.030580131
0.047341652 0.0798256 -0.055019334 -0.062523596 0.011344516 0.021715982 -0.07160247 -0.1092362
0.049381275 -0.0065297945 0.056658298 0.11838904 -0.011096707 0.000104270526 0.05633162 0.027451364
0.06226196 -0.04646584 0.035698052 -0.029128 0.07612643 -0.077095725 0.049117792 0.026590094
0.045193233 0.10408684 -0.068762615 0.08121716 -0.05536285 0.066232756 -0.030033836 0.017520528
-0.0030448325 0.07311588 -0.10423847 -0.013030343 0.07667038 0.042747498 0.026983522 -0.048539918
0.05483479 -0.022236329 0.08858623 -0.009912946 -0.12841348 0.05382964 -0.02837474 0.040746283
-0.04144441 -0.042187225 0.051027235 -0.008462815 0.03448798 -0.026758475 0.030266598 0.05150501
-0.004309125 -0.08792742 0.06547761 0.0067192004
00000000: d02b 6ebd d062 103d b272 a73d b358 5d3d
00000010: 1c7c 8e3d b9d7 02bd 243e 1a3d 5061 093d
00000020: f54f 9a3d 90cf 983d 70fd 9cbd a35f c13d
00000030: 608c 6fbb 4606 c2bd 7305 b13d eefa 523d
00000040: f5f1 6d3d 4940 c8bd 073d 073d 1fba 813d
00000050: 4c40 3e3c ea33 4bbc 22c2 033d 2f83 fa3c
00000060: 52e9 413d 9b7b a33d f45b 61bd 5f0c 80bd
00000070: 59de 393c b7e5 b13c 51a4 92bd 3bb7 dfbd
00000080: 0544 4a3d e3f7 d5bb 8812 683d f475 f23d
00000090: f6ce 35bc d0ab da38 fcbb 663d afe1 e03c
000000a0: 6606 7f3d f752 3ebd 1f38 123d d89d eebc
000000b0: 2ce8 9b3d 5de4 9dbd bd2f 493d 78d3 d93c
000000c0: 8a1c 393d 7b2b d53d 6ad3 8cbd 2f55 a63d
000000d0: 28c4 62bd 0aa5 873d 8509 f6bc 3687 8f3c
000000e0: d08b 47bb c7bd 953d fb7a d5bd 387d 55bc
000000f0: 5c05 9d3d 0018 2f3d 8c0c dd3c cbd1 46bd
00000100: 729a 603d f628 b6bc b36c b53d e969 22bc
00000110: d37e 03be 787c 5c3d 2572 e8bc 93e5 263d
00000120: 9dc1 29bd 83cc 2cbd ef01 513d 9ea7 0abc
00000130: 4543 0d3d 9734 dbbc a8f1 f73c ebf6 523d
00000140: 8f33 8dbb 4b13 b4bd 2019 863d bd2c dc3b

output.weight f4 [10, 84]
0.2686196 0.186273 -0.079953484 0.063359804 0.1700478 0.1116727 0.36556613 0.24420203
0.25074166 -0.18623018 0.2435888 0.30884904 0.09632408 -0.3002245 -0.17102912 0.057143673
-0.011282058 0.10330391 0.12984075 -0.0037897301 -0.19809106 -0.38829887 -0.2020962 -0.0753342
0.2813008 -0.5308755 0.31321174 -0.1874502 0.35113597 -0.07421681 -0.09211493 0.23719372
0.068789914 -0.06959541 0.019944314 -0.08071353 -0.23693913 -0.05379169 0.08794527 0.0150904395
-0.4577663 -0.08749158 -0.12065566 -0.04585468 0.11583288 -0.2529731 0.15336813 -0.19512041
-0.13663666 -0.2622973 -0.3235058 -0.24605362 -0.051481757 0.4529716 -0.04322947 -0.3490704
-0.1366502 0.291167 0.19979544 -0.064934164 -0.33241242 -0.066312686 -0.27575302 0.12772222
-0.020931002 0.049287662 0.020582728 -0.13483757 0.013304804 0.11741851 0.3341659 -0.14767082
-0.4370954 -0.13624534 0.21070077 -0.5262532 -0.12299591 0.05929341 0.11733108 -0.065785035
0.18114848 0.13139522 0.10064207 0.1681219 0.3398796 0.3887353 -0.34644315 -0.0072030276
-0.21799725 -0.33159083 -0.17363928 0.06375497 -0.23365079 -0.062586315 -0.14758545 -0.263192
0.39343894 0.23102176 0.1637974 0.14840646 -0.10759211 0.20159198 0.17455548 0.110009186
0.06355155 0.36753428 0.20030822 0.2892821 -0.33855098 0.019948673 -0.077564575 -0.015145923
0.057600636 0.40192428 -0.1095796 0.30764005 0.18149164 -0.19963011 -0.22622328 -0.44352612
0.5187879 -0.40550584 -0.14132722 0.26971582 0.4627102 0.37811518 0.19994234 0.10456356
0.056802794 0.48492232 0.27227774 0.24351531 0.11885258 -0.03210569 0.37371382 -0.06883815
-0.29237297 -0.36024445 -0.42629415 0.41160533 0.056463193 0.05859699 -0.06672946 0.21101148
0.35208476 0.084523514 0.11255675 0.28595835 -0.13520525 0.041470427 -0.21561374 -0.058018714
0.23542829 0.036152523 0.2536883 -0.3080417 0.2522313 -0.080716975 0.17703529 0.2398733
0.3329567 0.012466484 -0.05495184 -0.29005605 0.046835132 0.24469948 -0.17320111 -0.3442486
-0.11011792 0.45683172 0.49010053 -0.17296302 0.37466145 0.19354472 -0.35265985 -0.22399794
-0.105879776 -0.17205617 -0.06859951 0.044256814 -0.1118637 -0.31368822 -0.2459325 -0.037958063
0.35125792 0.2959373 -0.16948107 -0.052546464 -0.480368 0.36980835 -0.05972445 0.44967753
-0.045785513 -0.28060126 0.41535008 -0.31662863 0.1127147 0.06879308 -0.05855433 0.1581707
-0.031435333 0.37711027 -0.3105848 -0.14486788 0.38048652 -0.3771363 0.01855595 -0.18937159
-0.07071467 -0.36133716 -0.10538837 0.08375354 0.2793472 0.44438532 -0.2574527 0.22417213
0.2548599 -0.18052849 -0.16909967 -0.31567925 0.48386115 -0.02208017 -0.26626498 0.3892598
0.041328654 0.044217255 0.24408631 0.14880039 -0.0023857527 0.17436568 0.33848715 -0.053067632
0.3700725 -0.30914667 -0.063879885 0.031203372 -0.3072093 -0.007172399 0.0027511048 0.050638407
-0.097858645 -0.106036566 -0.20646629 -0.23392144 0.09825234 -0.1751191 0.25616434 0.2354935
-0.23972669 -0.03521691 -0.24781096 -0.03561407 -0.249527 0.09165972 0.19934897 -0.34972134
00000000: 8288 893e 59be 3e3e a7be a3bd c9c2 813d
00000010: 0321 2e3e a8b4 e43d 7c2b bb3e 1910 7a3e
00000020: 3661 803e 20b3 3ebe 586f 793e 7621 9e3e
00000030: 8f45 c53d 07b7 99be 4222 2fbe 7c0f 6a3d
00000040: 62d8 38bc 0091 d33d f9f4 043e 1f5d 78bb
00000050: 62d8 4abe 1ccf c6be 4ef2 4ebe d148 9abd
00000060: a906 903e 75e7 07bf 4a5d a03e f2f2 3fbe
00000070: 18c8 b33e fcfe 97bd c1a6 bcbd e9e2 723e
00000080: bae1 8c3d 0a88 8ebd 4262 a33c 234d a5bd
00000090: 2ca0 72be ad54 5cbd a61c b43d e43d 773c
000000a0: 5860 eabe c92e b3bd 511a f7bd 1ed2 3bbd
000000b0: ca39 ed3d b185 81be 890c 1d3e a5cd 47be
000000c0: 7bea 0bbe d54b 86be 8da2 a5be 7bf5 7bbe
000000d0: 89de 52bd e5eb e73e 6211 31bd 5bb9 b2be
000000e0: 08ee 0bbe d713 953e 2d97 4c3e 34fc 84bd
000000f0: f631 aabe f2ce 87bd 802f 8dbe 9dc9 023e
00000100: 7e77 abbc dce1 493d 1c9d a83c dc12 0abe
00000110: 65fc 593c 1e79 f03d cb17 ab3e 0537 17be
00000120: f8ca dfbe e683 0bbe f1c1 573e 88b8 06bf
00000130: 48e5 fbbd a6dd 723d 474b f03d 4eba 86bd
00000140: fd7e 393e 788c 063e 6e1d ce3d 2628 2c3e
00000150: b304 ae3e 5008 c73e ff60 b1be 6007 ecbb
00000160: ac3a 5fbe 46c6 a9be 7fce 31be f791 823d
00000170: 2742 6fbe 412d 80bd a420 17be 1ac1 86be
00000180: d470 c93e f890 6c3e 81ba 273e ddf7 173e
00000190: 4159 dcbd 216e 4e3e acbe 323e 7f4c e13d
000001a0: 5127 823d 742d bc3e 991d 4d3e c91c 943e
000001b0: 8e56 adbe 666b a33c 2dda 9ebd 9b26 78bc
000001c0: a5ee 6b3d 05c9 cd3e 456b e0bd ff82 9d3e
000001d0: f2d8 393e d66b 4cbe 13a7 67be db15 e3be
000001e0: 49cf 043f 769e cfbe 15b8 10be 3118 8a3e
000001f0: 5ae8 ec3e 5098 c13e afbd 4c3e 6b25 d63d
00000200: 0caa 683d bd47 f83e fd67 8b3e 145c 793e
00000210: fb68 f33d 4281 03bd 6b57 bf3e 04fb 8cbd
00000220: e9b1 95be f671 b8be 3a43 dabe efbd d23e
00000230: f345 673d 6603 703d 75a9 88bd 6513 583e
00000240: 7444 b43e aa1a ad3d 2784 e63d 2269 923e
00000250: 3f73 0abe e5dc 293d d9c9 5cbe 08a5 6dbd
00000260: 1d14 713e ab14 143d 6fe3 813e a4b7 9dbe
00000270: 7624 813e f14e a5bd bd48 353e 59a1 753e
00000280: 4d79 aa3e 3940 4c3c 2e15 61bd 3a82 94be
00000290: 32d6 3f3d 8092 7a3e a25b 31be 5a41 b0be
000002a0: 8185 e1bd d9e5 e93e 75ee fa3e 381d 31be
000002b0: a0d3 bf3e 9630 463e d58f b4be b75f 65be
000002c0: 7fd7 d8bd 7e2f 30be e67d 8cbd a246 353d
000002d0: cc18 e5bd be9b a0be bbd5 7bbe ea79 1bbd
000002e0: 14d8 b33e 1885 973e 728c 2dbe f63a 57bd
000002f0: cbf2 f5be 8557 bd3e a0a1 74bd 223c e63e
00000300: 9789 3bbd f8aa 8fbe c4a8 d43e 261d a2be
00000310: f7d6 e63d 63e3 8c3d aad6 6fbd 80f7 213e
00000320: 56c2 00bd 9914 c13e f904 9fbe 3f58 14be
00000330: 21cf c23e 0218 c1be a602 983c a0ea 41be
00000340: dad2 90bd 2f01 b9be dcd5 d7bd fa86 ab3d
00000350: 9906 8f3e 7986 e33e d7d0 83be 618d 653e
00000360: ff7c 823e 76dc 38be 7728 2dbe b6a0 a1be
00000370: a6bc f73e 79e1 b4bc e253 88be 0f4d c73e
00000380: 3c48 293d 271d 353d c3f1 793e 215f 183e
00000390: 4a5a 1cbb eb8c 323e 304e ad3e 725d 59bd
000003a0: 257a bd3e 7948 9ebe 75d3 82bd 379e ff3c
000003b0: 8a4a 9dbe 7206 ebbb e14b 343b 386a 4f3d
000003c0: 1d6a c8bd b329 d9bd e66b 53be 1a89 6fbe
000003d0: 8638 c93d 6c52 33be f927 833e 3525 713e
000003e0: ea7a 75be 9b3f 10bd 28c2 7dbe 0fe0 11bd
000003f0: 0284 7fbe 17b8 bb3d 2322 4c3e ad0e b3be

output.bias f4 [10]
-0.03560094 -0.07104844 0.015342076 0.06467835 -0.03714189 0.07616918 -0.056273695 0.027777756
0.0180245 0.070077814
00000000: 4bd2 11bd d881 91bd 555d 7b3c 1576 843d
00000010: 1822 18bd 96fe 9b3d 3f7f 66bd 2d8e e33c
00000020: 1ea8 933c f584 8f3d
